model.pth (torch, 3015 bytes, 5 tensors)

weight f4 [5, 4]
000000 18 92 b3 3e a0 3f d8 3c 20 d6 36 bd b2 2b ff 3e
       0.35072398 0.026397526 -0.0446378 0.49838024
000010 70 7b e2 3d d0 b0 47 bd d0 b7 39 3e 8c ed c7 be
       0.110587 -0.048752606 0.18136525 -0.3904842
000020 30 86 9f be 80 8b b1 bc c8 90 a2 3e 90 8b 73 3d
       -0.31157064 -0.021672964 0.31751084 0.05945927
000030 20 6d 34 3d 56 98 cc 3e 24 85 f5 be 66 d7 cf be
       0.044049382 0.39959973 -0.4795314 -0.40594023
000040 06 aa bf 3e 80 ba 36 bc ba 37 c7 be 00 73 38 3d
       0.37434405 -0.0111528635 -0.38909703 0.045031548

bias f4 [5]
000000 ae 72 ca 3e e0 c2 4e bd 54 03 63 3e 70 ee 5d 3e
       0.3954062 -0.050478816 0.22169238 0.21672988
000010 04 4d b7 3e
       0.35800946

weight f4 [3, 5]
000000 d4 16 23 3e 74 37 b0 3e 8c 50 b0 3e 48 a7 b4 bd
       0.15926677 0.34417307 0.34436452 -0.08820969
000010 ad 78 dc 3d 92 76 a1 be db 1c e0 be b7 54 44 bd
       0.107652046 -0.31535774 -0.43772015 -0.047932353
000020 21 e4 f2 bc e7 76 af be 27 b1 47 3e 8d e9 b3 3e
       -0.029649796 -0.34270403 0.19501172 0.35139123
000030 b5 3f 8d 3e db 5e d4 be d0 aa 3b 3c
       0.27587667 -0.4147862 0.011454299

bias f4 [3]
000000 56 9e bb 3e 06 02 90 3d d5 11 4e 3e
       0.36644238 0.07031636 0.2012399

weight f4 [1, 3]
000000 41 24 ed be f7 38 c5 be 1e 53 09 bf
       -0.46316722 -0.38520023 -0.5364245
